checkpoint/SEED0_CNN1DCWRU_CWRU_lr5e-05_best.pth (torch, 146744 bytes, 8 tensors)

conv.0.weight f4 [16, 1, 64]
0	0xbaafbdbd	-0.0013407987
1	0x3d882752	0.06648125
2	0xbdd4177b	-0.10356041
3	0xbdbdfa41	-0.09276248
4	0xbd485baa	-0.048915543
5	0x3d073a7c	0.03301476
6	0xbb139b43	-0.0022522963
7	0x3dccd148	0.10000855
8	0xbc22ad1d	-0.009928969
9	0x3d0dfc30	0.034664333
10	0xbd136b9b	-0.035991292
11	0xbcbad3e0	-0.022806108
12	0xbdf19db0	-0.11797655
13	0xbda830b5	-0.08212415
14	0xbd53cd28	-0.051709324
15	0x3b81ab41	0.0039571826
16	0x3d46a155	0.048493702
17	0x3d976403	0.073921226
18	0xbdb08a5d	-0.08620141
19	0xbd645897	-0.05574855
20	0x3d37d7d0	0.04488355
21	0x3dd57d7b	0.10424324
22	0xbccb9b9f	-0.02485448
23	0x3dc182a1	0.094487436
24	0xbc9cef1a	-0.019156981
25	0x3c65eb6d	0.014033181
26	0x3de8366c	0.11338505
27	0xbdeed313	-0.11661353
28	0xbda33732	-0.07969512
29	0xbd05703d	-0.032577742
30	0xbd4a6875	-0.049416024
31	0x3ddc8787	0.10768037
32	0xbda5684e	-0.08076535
33	0xbd67c065	-0.056579966
34	0xbdafaa13	-0.08577361
35	0xbdec40f4	-0.11535826
36	0xbd923f8f	-0.07141029
37	0x3dde8a53	0.10866227
38	0x3d67536b	0.056476038
39	0x3d78138c	0.060565516
40	0x3bc17b44	0.005904587
41	0xbd85dbac	-0.0653604
42	0x3ca1974c	0.019725464
43	0xbdf1cd7d	-0.11806772
44	0xbdbb8435	-0.09156076
45	0xbd8636c7	-0.06553417
46	0x3d9fc664	0.07801512
47	0x3d953cec	0.072870106
48	0xbd61db54	-0.05514081
49	0xbb76b21a	-0.0037642778
50	0x3da5b97d	0.0809202
51	0x3e005aec	0.12534684
52	0x3d4fba2f	0.050714668
53	0x3c93fa04	0.018063553
54	0x3dad5505	0.08463482
55	0xbd96815f	-0.07348894
56	0x3cbaac0e	0.02278712
57	0xbdc89652	-0.09794296
58	0xbdb48521	-0.08814455
59	0xbd881a02	-0.066455856
60	0x3d5f0ce7	0.054455664
61	0x3d46dd93	0.048551153
62	0xbd9916b5	-0.07475034
63	0x3d1c67ad	0.03818481
64	0x3d8f97f2	0.07011403
65	0xbc81cb5d	-0.015844041
66	0x3b6579a2	0.0035015126
67	0x3cdc82d3	0.02691785
68	0x3d9a1e34	0.07525292
69	0x3df11cfe	0.11773108
70	0xbdc91080	-0.098176
71	0xbd3d69dd	-0.046243537
72	0x3d4d6c3a	0.05015204
73	0x3dd806b8	0.105481565
74	0x3de3a834	0.111160666
75	0x3de73d1e	0.11290954
76	0x3ce1ec50	0.027578503
77	0xbdd93584	-0.106059104
78	0x3c5f3639	0.0136237675
79	0xbd9f0572	-0.077647105
80	0xbdf0b755	-0.11753718
81	0x3ddf8e2c	0.10915789
82	0x3dbdc558	0.09266156
83	0xbe02498c	-0.12723368
84	0x3cab1b9c	0.020887189
85	0xbcbcc5fe	-0.023043629
86	0xbcae1348	-0.021249428
87	0xbd6680f7	-0.056275334
88	0x3d4bda55	0.049768765
89	0xbd9352a4	-0.07193497
90	0x3d457ffe	0.048217766
91	0x3d86a9c5	0.0657535
92	0x3dbbf2a1	0.09177137
93	0x3d4512da	0.04811368
94	0xbdfd1f91	-0.123595364
95	0xbda7c1be	-0.0819125
96	0x3d7a5345	0.06111457
97	0x3cc9f397	0.024652286
98	0xbdcaac93	-0.09896197
99	0xbd9621f6	-0.07330696
100	0x3def4bd8	0.11684388
101	0x3dac3c47	0.084099345
102	0xbd5dd409	-0.05415729
103	0xbcfd38a0	-0.03091079
104	0xbdf23814	-0.11827102
105	0xbaea1248	-0.0017858231
106	0xbdc0cd06	-0.09414105
107	0xbdc671f1	-0.09689701
108	0xbbff52a2	-0.007791833
109	0x3c92a9bf	0.017903207
110	0xbd54e38a	-0.05197481
111	0x3d9721f1	0.07379521
112	0xbd9b0563	-0.07569387
113	0x3dea8c1d	0.11452506
114	0x3db2d0c0	0.08731222
115	0xbdd3e79d	-0.10346911
116	0xbced2fff	-0.02895355
117	0x3c00adfd	0.007853982
118	0x3ca6cb01	0.020360472
119	0x3d006d49	0.031354222
120	0x3d4b1856	0.049583755
121	0x3bd7ae9e	0.0065820953
122	0xbd80b95e	-0.06285356
123	0x3d689315	0.056780893
124	0xbdfadb21	-0.12248827
125	0xbd9cffff	-0.07666015
126	0xbd090bbc	-0.033458456
127	0xbd7deb9d	-0.061992276
128	0xbd302e86	-0.04301312
129	0xbdd54bbf	-0.10414838
130	0xbcefe271	-0.02928278
131	0x3cc1eb7a	0.023671854
132	0xbdad1836	-0.084518835
133	0xbc1ab905	-0.009443526
134	0x3db172cd	0.08664475
135	0xbc75f384	-0.015011672
136	0x3b774bf5	0.0037734483
137	0xbc0c4bf0	-0.008563027
138	0x3ce6a79b	0.028156092
139	0x3da92af3	0.08260145
140	0x3df8ec4e	0.121544465
141	0x3da8dc57	0.082451515
142	0x3df8d77d	0.12150476
143	0xbbebf8df	-0.0072012986
144	0xbde8c95f	-0.113665335
145	0xbd7dfe53	-0.06201012
146	0x3da7e547	0.08198028
147	0xbb82e914	-0.0039950702
148	0xbd85bad0	-0.06529772
149	0xbdca74ff	-0.098855965
150	0xbdf51b50	-0.119681
151	0xbdd99202	-0.10623552
152	0xbcbe8e87	-0.023261322
153	0x3d925b81	0.07146359
154	0x3d90cc34	0.07070199
155	0xbdf073bf	-0.11740827
156	0x3da5f67b	0.08103653
157	0xbdc2f399	-0.09519119
158	0xbccd179f	-0.025035677
159	0xbd558840	-0.05213189
160	0xbcda2cd6	-0.026632708
161	0xbce0cd69	-0.027441697
162	0xbdebfc9e	-0.11522792
163	0xbde3788f	-0.11106979
164	0xbcb964fd	-0.022631163
165	0xba384f4e	-0.000703086
166	0xbd68b5ea	-0.05681411
167	0x3d48811f	0.048951264
168	0xbde17aa1	-0.11009718
169	0xbbbfaf5a	-0.005849761
170	0x3de67bea	0.112541035
171	0xbd46f351	-0.04857189
172	0x3dea21f9	0.11432261
173	0x3d3731b7	0.044725146
174	0xbdeb34a2	-0.11484648
175	0x3d9d098e	0.07667838
176	0xbc8a9298	-0.016915604
177	0xbd6e7eab	-0.05822627
178	0x3dc86624	0.09785107
179	0xbdd0b035	-0.10189859
180	0x3c7978be	0.015226541
181	0xbcc0bce8	-0.023527578
182	0x3dbc6fc8	0.09201008
183	0x3d19ec37	0.037578788
184	0x3d802034	0.06256142
185	0x3d3cf467	0.046131518
186	0xbcf1a65c	-0.029498272
187	0xbce51bf7	-0.027967436
188	0xbdd82693	-0.105542324
189	0x3d854586	0.06507401
190	0x3dc60dac	0.096705765
191	0x3daa9e29	0.08330948
192	0xbdaecb48	-0.085348666
193	0x3c071a3f	0.008246004
194	0xbdb00231	-0.08594168
195	0xbd8bfc37	-0.068352155
196	0xbd98e69f	-0.074658625
197	0x3d23f2b9	0.0400264
198	0xbd9e4829	-0.07728607
199	0xbbb1401e	-0.0054092547
200	0x3b402c3a	0.0029323236
201	0x3da25a1b	0.079273425
202	0xbdc050b7	-0.09390395
203	0xbdab93ba	-0.08377786
204	0xbd8f5034	-0.069977194
205	0x3db883d9	0.09009523
206	0xbd2f0fdd	-0.042739738
207	0x3ddb26d3	0.107007645
208	0x3d3ac21f	0.045595285
209	0x3c6f841a	0.014618898
210	0xbb4b04c8	-0.0030978192
211	0xbcdf3117	-0.027245088
212	0x3c59a49f	0.013283878
213	0xbcf842ae	-0.030305233
214	0xbafef040	-0.0019450262
215	0x3c8143ce	0.015779402
216	0xbdc5d524	-0.09659794
217	0xbd81d11d	-0.06338713
218	0x3dd3e01b	0.10345479
219	0xbdca96ab	-0.09892019
220	0xbbdb65eb	-0.006695499
221	0x3e009ec9	0.12560572
222	0x3d3ef346	0.046618722
223	0x3b820bd7	0.0039686966
224	0xbddfd710	-0.10929692
225	0x3d7604bb	0.060063105
226	0xbdbb0317	-0.09131449
227	0xbd1bb8e4	-0.038018122
228	0xbd368ca5	-0.044567723
229	0xbcac4391	-0.021028312
230	0xba11bce3	-0.00055594573
231	0x3dd29b57	0.10283535
232	0x3c8bebce	0.017080214
233	0x3dea04b4	0.11426678
234	0x3da216d6	0.07914512
235	0xbd9c0591	-0.07618249
236	0x3d714915	0.058907587
237	0xbdafd84f	-0.085861795
238	0xbd56eb3f	-0.052470442
239	0x3d0e63a3	0.03476299
240	0x3d1e8e8d	0.038710166
241	0x3dba8bc5	0.0910869
242	0xbd2fde40	-0.042936563
243	0xbb1e16f4	-0.0024122568
244	0x3d7e0f08	0.062026054
245	0xbdfa42e9	-0.12219793
246	0x3dbad1d4	0.09122053
247	0xbdcf14a1	-0.101113565
248	0x3b919ec6	0.004443976
249	0xbc97cdc3	-0.018530732
250	0xbd8183b8	-0.063239515
251	0x3c9992fb	0.018746844
252	0x3dd5cff9	0.10440058
253	0xbd18ad53	-0.03727467
254	0xbd9bb1a5	-0.076022424
255	0xbd46b395	-0.048511107

conv.0.bias f4 [16]
0	0xbc0ae90b	-0.008478413
1	0xbdecbab2	-0.11559047
2	0xbd8ce537	-0.06879657
3	0x3d4937c4	0.049125448
4	0xbd28c479	-0.041202996
5	0x3db095ff	0.086223595
6	0x3dcfe808	0.10151678
7	0x3cab04c4	0.020876296
8	0xbbeaf61f	-0.007170453
9	0xbd29dc1b	-0.041469675
10	0xbbf37c22	-0.0074305693
11	0x3cd09e3d	0.025466079
12	0xbdbe71bf	-0.09299039
13	0xbcefdff4	-0.029281594
14	0xbdd2119b	-0.10257264
15	0x3da1b8c5	0.0789657

conv.3.weight f4 [32, 16, 3]
0	0xbdbdfc95	-0.09276692
1	0x3e064226	0.13111171
2	0xbd1b991e	-0.03798782
3	0xbdac20d2	-0.084046975
4	0x3d8b71ca	0.06808813
5	0x3caa0c24	0.020757742
6	0x3dca1070	0.098664165
7	0x3d721ead	0.059111286
8	0xbe0f5093	-0.1399558
9	0x3db882e8	0.090093434
10	0xbce96efc	-0.028495304
11	0xbd85914e	-0.06521855
12	0x3db81fa2	0.089904085
13	0x3dd55d86	0.10418229
14	0xbe02d586	-0.12776765
15	0xbc4ad6c7	-0.0123803085
16	0x3df7c816	0.1209871
17	0x3d694bbb	0.056956988
18	0x3df7c153	0.120974205
19	0xbd4df54c	-0.05028276
20	0xbda52a2c	-0.08064684
21	0x3dfeca75	0.12440959
22	0x3d75a100	0.059967995
23	0x3e0cf989	0.13767065
24	0xbd7a7c5f	-0.061153766
25	0xbdc0bc54	-0.09410921
26	0xbc95099a	-0.018193055
27	0xbe0ba113	-0.13635664
28	0x3d644936	0.055733882
29	0x3dd7a56d	0.10529599
30	0x3d147107	0.036240604
31	0xbc65becb	-0.014022539
32	0x3d92a89f	0.07161068
33	0xbdbbaeca	-0.09164198
34	0x3e105be7	0.14097558
35	0xbe12262d	-0.14272375
36	0xbe0e3e9a	-0.13891068
37	0xbd0e1def	-0.034696516
38	0x3df02c4a	0.117271975
39	0x3c6ab64e	0.014325691
40	0x3d62d99b	0.055383306
41	0xbdd450ab	-0.10366949
42	0x3d530e87	0.051527526
43	0xbc8b9e9e	-0.017043408
44	0x3d683483	0.056690704
45	0x3dcdc250	0.10046828
46	0x3d794372	0.060855336
47	0xbc6414a3	-0.013920936
48	0xbc1cc9ad	-0.009569568
49	0xbdbce83e	-0.09223984
50	0xbd5c14ca	-0.053730763
51	0x3dbf5b1f	0.09343552
52	0xbd6c3745	-0.057669897
53	0x3db6d2c3	0.08926918
54	0xbd683f67	-0.05670109
55	0xbd0d0337	-0.034426894
56	0x3b490980	0.0030675828
57	0xbe08e6f7	-0.13369356
58	0xbb4b81ff	-0.0031052826
59	0xbc85ceff	-0.016334055
60	0xbc4ae963	-0.012384745
61	0xbced94bb	-0.029001584
62	0x3de7f2f6	0.11325638
63	0x3ddb06ff	0.10694694
64	0xbdc70266	-0.09717254
65	0x3d8a1e7f	0.06744098
66	0xbde907ef	-0.11378466
67	0xbdfd6bd2	-0.12374081
68	0x3d344992	0.044015475
69	0x3b2603c8	0.0025331844
70	0xbd8baa24	-0.06819561
71	0xbe0ee229	-0.13953461
72	0xbd6add82	-0.057340153
73	0x3d3f8cbc	0.046765074
74	0xbe08bac3	-0.13352494
75	0xbe10a1cd	-0.14124222
76	0x3c8efaac	0.017453514
77	0xbdd831b7	-0.10556357
78	0xbe00c47f	-0.12574957
79	0xbd612781	-0.054969314
80	0xbcc04b24	-0.02347333
81	0xbe064c89	-0.13115133
82	0xbdc6b372	-0.09702195
83	0x3c0e1116	0.008671066
84	0xbe0b934f	-0.13630413
85	0xbca7be1d	-0.020476395
86	0xbdc036c7	-0.09385448
87	0xbdca810a	-0.098878935
88	0x3d6b736d	0.057483125
89	0xbde1b032	-0.11019935
90	0xbde173c3	-0.11008408
91	0x3da86d12	0.082239285
92	0x3cdea090	0.027176172
93	0x3e067ae1	0.13132812
94	0xbd210c1e	-0.039318196
95	0xbd902105	-0.07037548
96	0xbc620cd6	-0.013797006
97	0x3a4ebedc	0.00078867166
98	0x3de095af	0.1096605
99	0xbe13eb9d	-0.14445348
100	0xbc369aa9	-0.011145272
101	0x3d8164c1	0.063180454
102	0xbda35006	-0.07974248
103	0xbd98daf8	-0.0746364
104	0x3d8d700b	0.06906136
105	0xbe0c4eda	-0.13701954
106	0x3d0fd817	0.03511819
107	0xbde0cd5f	-0.109766714
108	0x3d91370b	0.07090577
109	0xbdfedbd8	-0.124442756
110	0x3db4293b	0.087969266
111	0xbe0c2f62	-0.1368995
112	0xbdf820a0	-0.12115598
113	0x3b27faf5	0.002563176
114	0x3dea563c	0.11442229
115	0xbdf8f338	-0.12155765
116	0xbd81a9a4	-0.063311845
117	0x3e009cdd	0.12559839
118	0xbccb7f49	-0.024840968
119	0x3d732384	0.059360042
120	0xbe0e9e53	-0.13927583
121	0xbd3bb655	-0.045828182
122	0xbd956ad2	-0.07295765
123	0x3df76a5b	0.120808326
124	0x3d715edd	0.05892836
125	0xbdd8dc44	-0.10588887
126	0x3cb4a245	0.022050032
127	0xbb47f802	-0.0030512814
128	0xbd75bc91	-0.059994284
129	0xbda7e98c	-0.081988424
130	0xbd462321	-0.048373345
131	0x3de8dd78	0.11370367
132	0xbdd632db	-0.10458919
133	0xbdd394d3	-0.1033112
134	0xbd389ffe	-0.045074455
135	0x3af75924	0.001887117
136	0x3d17d78d	0.0370708
137	0x3b746fb9	0.0037298037
138	0xbd14590c	-0.036217734
139	0xbdb56adb	-0.08858272
140	0xbcd8e167	-0.026474668
141	0xbd680a16	-0.056650244
142	0x3def5c65	0.11687545
143	0xbe0da56d	-0.13832636
144	0xbdb9783c	-0.09056136
145	0xbdef14f1	-0.11673916
146	0xbcd13a6e	-0.025540557
147	0x3de89a67	0.11357575
148	0x3e01dc82	0.12681773
149	0xbdff85ae	-0.12476669
150	0xbb9fb96d	-0.0048743994
151	0x3daf12ee	0.085485324
152	0x3d83a1c2	0.06427337
153	0x3df524b1	0.11969889
154	0xbb279e44	-0.0025576511
155	0xbdc41d9a	-0.095759585
156	0x3dc6d7fe	0.09709166
157	0xbd46d946	-0.04854705
158	0x3d9b5fd0	0.07586634
159	0xbd05f342	-0.03270269
160	0x3d82eb3c	0.06392524
161	0x3e075d2d	0.13219137
162	0x3e0bd140	0.13654041
163	0xbe048abb	-0.12943546
164	0xbdbf5abb	-0.09343477
165	0xbd6a56f6	-0.05721184
166	0xbdb7d97a	-0.08977027
167	0x3e0fec3c	0.1405496
168	0xbc39ba24	-0.011335883
169	0xbdc131be	-0.09433316
170	0xbd81ce9c	-0.06338236
171	0xbd9f9722	-0.07792498
172	0x3d77079f	0.060310002
173	0xbdfe2ae6	-0.12410526
174	0xbe077587	-0.13228427
175	0xbe0fb23e	-0.14032838
176	0x3d84d1a7	0.064853005
177	0x3d97a05e	0.074036345
178	0xbdb209d9	-0.086932845
179	0x3d1d4386	0.038394473
180	0x3ddd45f3	0.108043574
181	0x3cb0fcf9	0.021605002
182	0xbcf39aef	-0.029736964
183	0x3c56c903	0.013109448
184	0xbc5201d4	-0.012817819
185	0x3d98f67f	0.074688904
186	0xbdc485dc	-0.09595844
187	0x3d998227	0.07495528
188	0x3da8e1b3	0.08246174
189	0xbdafb2cb	-0.08579024
190	0x3df4cb69	0.1195286
191	0x3e134a7e	0.14383885
192	0xbd68a380	-0.05679655
193	0xbd2786b1	-0.040899936
194	0x3d95fd84	0.07323745
195	0xbde473b9	-0.11154885
196	0x3d6e5ef7	0.058196034
197	0x3d13abe0	0.036052585
198	0x3dbbfc8f	0.09179031
199	0xbdfdb9c3	-0.12388947
200	0xbdefc02d	-0.117065765
201	0x3d8a5708	0.06754881
202	0x3d60fbc9	0.05492762
203	0xbe068b0e	-0.13138983
204	0xbda0e6c8	-0.07856518
205	0xbe0754c8	-0.13215935
206	0xbdcf6062	-0.101258054
207	0xbd823355	-0.06357447
208	0x3df7b6e7	0.12095433
209	0xbcecdbaf	-0.028913347
210	0x3dae5db0	0.08513963
211	0x3e0e75b5	0.13912089
212	0x3d8a7c31	0.06761969
213	0xbe0366bb	-0.12832157
214	0x3d965bf5	0.07341758
215	0x3d68b54e	0.05681353
216	0x3de9ee25	0.114223756
217	0xbe0f84c4	-0.1401549
218	0x3db9322e	0.09042774
219	0x3df1fa05	0.118152656
220	0xbe080f53	-0.13287096
221	0x3c8f2f19	0.017478513
222	0x3dfb3f83	0.12267973
223	0xbdd8f136	-0.10592882
224	0x3d42cdc7	0.047559526
225	0x3d866311	0.06561864
226	0x3d2510e4	0.04029931
227	0x3e15cc3e	0.14628693
228	0x3df08a82	0.11745168
229	0x3dfb3f01	0.122678764
230	0xbc96a11d	-0.018387372
231	0x3dfb3fcc	0.12268028
232	0xbe07cf9e	-0.13262793
233	0xbd9c43f0	-0.076301455
234	0xbce8cba2	-0.028417412
235	0xbd28ce56	-0.041212402
236	0x3e09e8e7	0.13467751
237	0x3d907f4b	0.07055529
238	0x3dc3e49d	0.09565089
239	0x3dcec57a	0.100962594
240	0xbdd85608	-0.10563284
241	0xbc75d488	-0.015004285
242	0x3cc17650	0.023615986
243	0x3d1e3991	0.03862912
244	0x3d9a6222	0.075382486
245	0xbd61e312	-0.05514819
246	0xbd2e8370	-0.042605817
247	0x3dfc177c	0.12309167
248	0xbd13d054	-0.03608735
249	0xbdcaf241	-0.099094875
250	0x3dcd2278	0.1001634
251	0x3dcbfe97	0.099606685
252	0xbd309105	-0.04310705
253	0xbcdd68f2	-0.02702758
254	0xbdd50682	-0.10401632
255	0xbdf0ed6e	-0.11764036

conv.3.bias f4 [32]
0	0xbdfd13ca	-0.1235729
1	0x3d677f62	0.056517966
2	0x3db84a33	0.089985274
3	0xbd4ba9eb	-0.049722593
4	0xbe106072	-0.14099291
5	0x3df45e32	0.11932029
6	0xbd008801	-0.031379703
7	0x3cf16fac	0.029472195
8	0xbd1ea1d4	-0.03872855
9	0x3dbcc335	0.0921692
10	0x3e0f5093	0.1399558
11	0x3dbb04a8	0.091317475
12	0xbd307a52	-0.043085404
13	0x3dd00320	0.10156846
14	0x3d950de9	0.07278044
15	0x3c89842d	0.01678666
16	0xbde7ed94	-0.11324611
17	0xbd73b57e	-0.059499256
18	0xbe10d117	-0.14142261
19	0x3dc7d24b	0.09756907
20	0x3e11b7be	0.14230248
21	0x3daf7d50	0.08568823
22	0x3d347941	0.04406095
23	0x3d01704c	0.031601235
24	0x3e0e9297	0.13923107
25	0xbd910d24	-0.070825845
26	0xbd3c963b	-0.04604171
27	0xbe052f1a	-0.13006249
28	0xbc8563b7	-0.0162829
29	0x3c439d48	0.011939354
30	0x3d29eeea	0.04148761
31	0xbdcc84ac	-0.09986243

fc.0.weight f4 [32, 1024]
0	0xbb896691	-0.004193135
1	0xbcd15493	-0.025553023
2	0xbccc822a	-0.02496441
3	0x3b83cfae	0.00402256
4	0xbcf81d92	-0.030287538
5	0x3c09f0a4	0.00841919
6	0xbce9946e	-0.02851316
7	0xbcae8827	-0.021305157
8	0xbbbde3fc	-0.005795
9	0xbcf565f4	-0.029955842
10	0x3ccbc9f0	0.024876565
11	0x3ccc5dc0	0.024947047
12	0xbc83cd2a	-0.01608904
13	0x3be2aa98	0.006917309
14	0x3c8856e0	0.016642988
15	0x3c27bc6e	0.010237796
16	0xbb7807d2	-0.0037846458
17	0xbcef8f86	-0.029243242
18	0x3cbed739	0.023295986
19	0xbcd9d1f6	-0.026589375
20	0xbba2a955	-0.0049640336
21	0x3b171f4c	0.0023059426
22	0xbc232763	-0.009958121
23	0xbc303bfe	-0.010756491
24	0xbcd57de9	-0.026061015
25	0x3b06671b	0.0020508233
26	0xbb6597e7	-0.0035033168
27	0x3cdc5ef4	0.026900746
28	0xbc2b4642	-0.0104537625
29	0x3cc196fb	0.023631563
30	0x3a9971ee	0.0011706927
31	0xbc6b3c79	-0.0143576795
32	0xbbcf37b4	-0.006323779
33	0xbb6be40f	-0.0035994088
34	0x39aff35a	0.00033559912
35	0xbba9f50a	-0.0051866816
36	0x3c207459	0.009793364
37	0x3cd98761	0.026553812
38	0x3ba75e1b	0.005107654
39	0x3c35c0da	0.011093343
40	0x3c9de02b	0.01927193
41	0x3bcc727e	0.0062392345
42	0x3c70ae2f	0.014689966
43	0x3c858893	0.016300475
44	0x3cf0deca	0.02940311
45	0xbce7a38a	-0.028276224
46	0x3c287385	0.010281448
47	0xbb02e066	-0.0019970178
48	0xbba76084	-0.005107941
49	0xbc408552	-0.011750536
50	0x3c9b09d8	0.018925592
51	0x3ce8e7eb	0.0284309
52	0xbcd137ff	-0.025539396
53	0x3c8b5abe	0.017011043
54	0x3cb0202d	0.021499718
55	0x3bad0b06	0.005280855
56	0xb7f5a6b4	-2.9283903e-05
57	0x3cc25d7a	0.023726214
58	0x3a7dbf9e	0.0009679737
59	0xbbfc251c	-0.0076948535
60	0xbb099e1b	-0.002099878
61	0x3c1cff3f	0.00958234
62	0x3bf840a0	0.0075760633
63	0xbaeda94f	-0.0018132123
64	0x3c1c1878	0.009527318
65	0x3c01f53f	0.007932006
66	0xbcd3ca84	-0.025853403
67	0x3bee902e	0.007280371
68	0x3c990fb7	0.018684251
69	0x3b50a727	0.0031837912
70	0xbb51c9a1	-0.003201105
71	0x3cbe47b0	0.023227543
72	0xbce40f72	-0.027839396
73	0xbc74adff	-0.014934062
74	0xbc766117	-0.015037796
75	0x3cd65bf9	0.026166903
76	0xbcfab80b	-0.030605337
77	0x3b49fa09	0.0030819199
78	0xbcfcd498	-0.030863091
79	0xbac86a9a	-0.0015290559
80	0x3c3a4ee9	0.011371353
81	0xbbfc4cf1	-0.007699602
82	0x3cf17ef5	0.029479483
83	0xb983d867	-0.000251475
84	0xbc84fb53	-0.016233122
85	0x3bfa6d10	0.007642396
86	0x3c7d191f	0.015447884
87	0xba60a71c	-0.0008569823
88	0x3cd5b23f	0.02608597
89	0xbca3da5c	-0.020001583
90	0x3c545e3f	0.012961923
91	0x3c8aba6b	0.016934594
92	0x3c73c86c	0.014879327
93	0xba2f972c	-0.00066982466
94	0x3c088f1b	0.0083349
95	0xbcc75882	-0.024334196
96	0xbccaeb2d	-0.024770344
97	0xbabf559b	-0.0014597656
98	0xbb89ec76	-0.0042090965
99	0x3cbe9a34	0.02326689
100	0x3cbce084	0.023056276
101	0x3cafe65a	0.021472145
102	0xbc69d0bc	-0.014270958
103	0xbcc9451d	-0.024569089
104	0xbcefbaba	-0.029263843
105	0x3c38763e	0.01125866
106	0xbce7f033	-0.028312778
107	0xbcfff8d0	-0.031246573
108	0xbc82240d	-0.015886331
109	0xbcd3cdb2	-0.02585492
110	0xbc41c7c6	-0.011827415
111	0xbca160a0	-0.019699395
112	0xbc837633	-0.016047573
113	0x3cf83d7f	0.030302761
114	0xbbaed12c	-0.005334994
115	0x3cd5b020	0.02608496
116	0x3956bc68	0.00020478817
117	0xbb80dad7	-0.0039323377
118	0xbc0c5721	-0.008565695
119	0xbcb35443	-0.021890765
120	0xbccf1b86	-0.025281679
121	0x3cb0e358	0.021592781
122	0xbc1b0615	-0.009461899
123	0xbcf973d2	-0.030450735
124	0x3ce9b6ca	0.028529543
125	0x3a92f53a	0.0011211999
126	0xbcae5516	-0.021280807
127	0xbcce44c5	-0.025179276
128	0xbcddfd53	-0.027098333
129	0xbce7c0b6	-0.028290134
130	0x3cecd3ff	0.028909681
131	0x3cad805e	0.021179374
132	0x3b148fdb	0.0022668752
133	0xbcdba802	-0.02681351
134	0xbc0315ef	-0.008000835
135	0xbcf0ee2d	-0.029410446
136	0x3c32deb8	0.010917358
137	0xbc1460c0	-0.00905627
138	0xbbf5b6d1	-0.0074986
139	0xbc2c1390	-0.010502711
140	0x3c6c55b1	0.014424727
141	0x3c89c957	0.01681964
142	0x3be51032	0.006990456
143	0xbb836f1a	-0.004011047
144	0xbb49ea2e	-0.0030809748
145	0xba0096f5	-0.0004905307
146	0xbcba1aeb	-0.022717914
147	0x3d0010e0	0.031266093
148	0xbc4f67d6	-0.012659034
149	0x3c951449	0.01819815
150	0xbc900b7a	-0.017583597
151	0x3a04a109	0.00050593965
152	0x3c34985f	0.011022656
153	0xbcefcd1b	-0.029272607
154	0x3c5e40ae	0.0135652255
155	0xbcc76870	-0.024341792
156	0x3b7fc4c5	0.0039027196
157	0xbbe1d841	-0.0068922346
158	0x3c916387	0.017747654
159	0x3cf82307	0.03029014
160	0x3bd6c4eb	0.006554236
161	0xba872c21	-0.0010312834
162	0xbc7d5288	-0.0154615715
163	0x3c3ceb31	0.011530683
164	0xbc773e5c	-0.015090551
165	0x3c519dea	0.012793997
166	0xbc5e7cb4	-0.013579536
167	0x3cadb54a	0.02120461
168	0x3cc425a3	0.023943728
169	0x3c9b40b3	0.01895175
170	0x382894ee	4.0193023e-05
171	0x3c6936a4	0.014234219
172	0xbce805b9	-0.028323041
173	0x3cce8105	0.025208006
174	0xbc072aaf	-0.008249923
175	0x3c38e758	0.011285625
176	0xbbac8268	-0.005264569
177	0xbc2e76d3	-0.010648447
178	0xbc718c6b	-0.014742951
179	0x3ca3a241	0.01997483
180	0xbc8a3f4e	-0.01687589
181	0xbbb7b107	-0.00560582
182	0x3c7f94cd	0.015599442
183	0x3b46e330	0.0030347817
184	0xbcd62964	-0.026142783
185	0xbcffd786	-0.0312307
186	0xbc7bf747	-0.01537878
187	0x3ce9679f	0.028491793
188	0xbcb64451	-0.022249373
189	0x3c8b5b93	0.01701144
190	0x3cb64ae0	0.0222525
191	0xbc50f477	-0.012753597
192	0xbc6695bc	-0.014073785
193	0xbcbe9154	-0.023262657
194	0x3b827b94	0.003982017
195	0xbb9753b8	-0.0046181343
196	0x39da60b6	0.00041652255
197	0x3c5b278d	0.013376129
198	0x3c4c97bb	0.012487347
199	0xbc28c83d	-0.010301647
200	0x3aeea3b8	0.0018206751
201	0x3bf26bfe	0.0073981276
202	0xb928bec3	-0.00016092793
203	0x3bac0c6a	0.0052505033
204	0xbc53223f	-0.012886583
205	0x3cd39b1a	0.025830794
206	0xbb4f1618	-0.0031598862
207	0xbb8afe41	-0.004241735
208	0xbce830d6	-0.0283436
209	0xbcbf49ac	-0.02335056
210	0x39ca3760	0.000385697
211	0xbba23fe5	-0.0049514645
212	0xbc7fa096	-0.0156022515
213	0x3c858cc5	0.016302476
214	0xbb5b4cba	-0.003346248
215	0x3c29ff93	0.010375875
216	0x3cd68f51	0.026191385
217	0xbc6da65a	-0.014504993
218	0xbc80b38d	-0.015710616
219	0xbbe11de5	-0.006870019
220	0xbb5872a7	-0.0033027322
221	0xbc8408cd	-0.016117478
222	0xbc0903a3	-0.0083626835
223	0xbaec6c31	-0.0018037615
224	0x3c54eb8c	0.012995612
225	0x3ce3d7bb	0.02781283
226	0x3cb254d6	0.021768969
227	0x3b07053a	0.002060248
228	0xbb44d6ab	-0.0030035179
229	0x3bdeb815	0.0067968466
230	0xbb1b99ea	-0.0023742863
231	0xbba85f2f	-0.0051383
232	0x3c246fcb	0.010036419
233	0xbcda00aa	-0.026611645
234	0xbce41f95	-0.02784709
235	0xbaabac40	-0.0013097599
236	0xbc2ff06a	-0.0107384715
237	0xbc853a5a	-0.016263176
238	0xbcf6b4db	-0.030115535
239	0x3ca23ff9	0.019805895
240	0xbb1d4bf9	-0.0024001582
241	0xbc9258d3	-0.01786462
242	0xbc63ec5a	-0.013911331
243	0x3beb37bb	0.0071782744
244	0xbcc188ff	-0.023624895
245	0x3a8eb65a	0.0010888085
246	0xbac7708b	-0.0015216036
247	0x3c188ef6	0.009311428
248	0x3c3743be	0.011185585
249	0xbcb04c9d	-0.021520907
250	0x3c49c53c	0.012315091
251	0x3cb85056	0.022499245
252	0x3a5760ff	0.00082160527
253	0x3c6ff102	0.014644863
254	0xbc595d70	-0.013266906
255	0x3ba6eac9	0.0050939065

fc.0.bias f4 [32]
0	0x3c276e3b	0.010219152
1	0xbc2fdea7	-0.010734237
2	0xbcd4075f	-0.025882421
3	0x3bd94d0d	0.0066314996
4	0x3cc63640	0.02419579
5	0xbcf306ad	-0.02966627
6	0xbc989763	-0.018626874
7	0xbce67758	-0.02813308
8	0xbc977900	-0.018490314
9	0x3b8dc7cc	0.004326796
10	0xbb2153ae	-0.0024616527
11	0x3bf7ad7b	0.0075585223
12	0xbc43097b	-0.011904116
13	0x3cb579b1	0.022152754
14	0x3cf849a8	0.03030856
15	0xbcce92ef	-0.025216548
16	0x3cd036ad	0.025416696
17	0x3c5b6e8d	0.013393057
18	0xbc0b851d	-0.008515623
19	0x3cf1a1f8	0.029496178
20	0x3c57ac38	0.013163619
21	0xbcb9bd87	-0.022673381
22	0x3cc5a054	0.024124302
23	0xba11eb48	-0.00055663707
24	0xbcee3180	-0.029076338
25	0x3ca384ca	0.01996078
26	0x3c0ac273	0.008469212
27	0xbc2a72bf	-0.010403334
28	0xbbe57254	-0.0070021544
29	0xbb4bdf71	-0.0031108523
30	0x3becee1b	0.007230533
31	0xbc9507fd	-0.018192286

fc.3.weight f4 [10, 32]
0	0xbdf41a2a	-0.11919053
1	0x3c738def	0.014865383
2	0xbce288ac	-0.02765306
3	0x3d8f15cc	0.06986579
4	0xbe1519fe	-0.14560696
5	0xbc1944ef	-0.009354814
6	0xbe145b11	-0.14487864
7	0x3d89b6ef	0.06724345
8	0x3e18fa44	0.14939219
9	0x3b9b793a	0.004744676
10	0x3dbcfb9d	0.09227679
11	0x3de39459	0.111122794
12	0xbdf2bd69	-0.11852533
13	0x3df0e8d1	0.11763156
14	0xbd324547	-0.0435231
15	0xbcbad760	-0.022807777
16	0x3e211977	0.1573237
17	0xbd4dc724	-0.050238743
18	0x3e06f2fd	0.1317863
19	0x3da361cb	0.07977637
20	0x3e277fbd	0.16357322
21	0x3cf9bfe5	0.03048701
22	0x3e2cb7c0	0.1686697
23	0x39f7fa53	0.00047298017
24	0x3db600a1	0.08886839
25	0x3d9f0c7d	0.07766054
26	0x3e237d3b	0.1596574
27	0x3d24f17f	0.04026937
28	0x3d6cc2c4	0.05780293
29	0x3ca338f9	0.019924628
30	0x3d801ea6	0.06255846
31	0x3d41e60f	0.04733854
32	0xbd55ca22	-0.052194722
33	0x3e270e4c	0.16314048
34	0xbe28362c	-0.16426915
35	0xbd4d8cbd	-0.050183047
36	0x3dff16d6	0.124555275
37	0xbd3acced	-0.04560559
38	0xbd0c0f43	-0.034194242
39	0xbdc6f8f0	-0.0971545
40	0xbd091586	-0.033467792
41	0x3bd1b494	0.0063997004
42	0xbe21b801	-0.15792848
43	0x3e06e09a	0.13171616
44	0x3cc19350	0.023629814
45	0xbde40de9	-0.11135466
46	0xbe0ae798	-0.13564909
47	0x3dddb6bf	0.10825872
48	0xbc039418	-0.008030914
49	0x3d7ed3c7	0.062213685
50	0x3c51e6cd	0.012811375
51	0xbdff88f8	-0.124772966
52	0x3d3ea626	0.04654517
53	0xbe0f6984	-0.14005095
54	0xbd6d10f1	-0.057877485
55	0x3cfa12dd	0.030526573
56	0xbcca6227	-0.024705006
57	0xbd418c29	-0.047252808
58	0xbcadd097	-0.021217627
59	0x3db98ae7	0.09059697
60	0xbe05bf88	-0.13061345
61	0xbe1e5609	-0.15462507
62	0xbe1227ec	-0.14273041
63	0x3e15ce29	0.14629425
64	0xbc965dce	-0.018355276
65	0xbe1d6361	-0.15369941
66	0x3db04bbd	0.08608196
67	0xbd35b0ce	-0.044358067
68	0xba3aee36	-0.0007130833
69	0xbd158342	-0.03650213
70	0xbe223a73	-0.15842609
71	0x3e210e3c	0.15728086
72	0xbe205d3d	-0.15660568
73	0x3dcd264c	0.1001707
74	0x3b242a4a	0.002504962
75	0x3dd644da	0.10462351
76	0x3cbdd945	0.023174891
77	0xbd75ab45	-0.05997779
78	0xbcef1020	-0.029182494
79	0x3e077b1e	0.13230559
80	0xbc3224b6	-0.01087301
81	0x3dd4a809	0.10383613
82	0xbd309b77	-0.043117013
83	0xba0bcd6e	-0.00053330406
84	0xbd9cec99	-0.07662315
85	0x3db60a4a	0.08888681
86	0xbc2cb214	-0.010540504
87	0x3d73ada1	0.059491757
88	0x3d4e4eb1	0.050368015
89	0x3d968e09	0.0735131
90	0xbdb2eb24	-0.08736256
91	0x3bead9f2	0.0071670944
92	0x3dfb847f	0.12281131
93	0xbdea2581	-0.114329346
94	0x3dafdb60	0.08586764
95	0xbd86c6ac	-0.065808624
96	0xbdb41836	-0.0879368
97	0xbd047545	-0.0323384
98	0x3df337ae	0.118758544
99	0xbd623b91	-0.05523259
100	0xbdc6b778	-0.09702963
101	0x3da7f32f	0.082006805
102	0xbde6dc48	-0.11272484
103	0x3d87efe3	0.06637552
104	0x3e2a787c	0.16647524
105	0x3e1bd2b2	0.15217093
106	0xbe19b5ae	-0.15010712
107	0xbe1f1e3e	-0.1553888
108	0x3db43084	0.08798316
109	0xbd5095af	-0.050924
110	0xbe16c6cf	-0.14724277
111	0x3db541bd	0.08850429
112	0x3e1490e4	0.14508396
113	0xbe0922a9	-0.13392128
114	0x3e0ae224	0.13562828
115	0x3e347ae0	0.17624998
116	0x3d139858	0.03603396
117	0xbd64025b	-0.05566631
118	0x3d35ab41	0.044352774
119	0xbe22a801	-0.15884401
120	0xbe29a79e	-0.16567847
121	0xbd811968	-0.06303674
122	0x3cdea6f8	0.027179226
123	0x3e1efb23	0.15525489
124	0xbdb25d36	-0.08709185
125	0x3dee885a	0.11647101
126	0xbb90a758	-0.00441448
127	0x3d975c83	0.07390692
128	0xbd955838	-0.07292217
129	0xbe0e7479	-0.13911618
130	0xbd90d064	-0.07070997
131	0xbd627d32	-0.055295177
132	0x3e0b8ecb	0.1362869
133	0x3d37e9ba	0.044900633
134	0x3da5746c	0.08078846
135	0x3d8d70e1	0.069062956
136	0xbdbc3d63	-0.09191396
137	0xbe06e694	-0.13173896
138	0xbdbe768d	-0.092999555
139	0xbddedd14	-0.10882011
140	0x3dafdbe7	0.08586865
141	0x3ceb94d1	0.028757485
142	0xbe3489d0	-0.17630696
143	0xbdebaa3e	-0.115070805
144	0xbe099ba4	-0.13438278
145	0x3e1c91e1	0.15290023
146	0x3ce41013	0.027839696
147	0x3dfc2c84	0.12313178
148	0x3dd01f08	0.10162169
149	0x3dc93ee0	0.098264456
150	0x3e00c16b	0.12573783
151	0x3e1181a8	0.14209616
152	0x3e033470	0.12812972
153	0xbe153488	-0.1457082
154	0xbd253cb3	-0.04034109
155	0x3d91b418	0.07114428
156	0xbdf4dfd4	-0.11956754
157	0x3e1f841c	0.1557774
158	0xbd369959	-0.044579837
159	0xbe1438b4	-0.14474756
160	0x3e2550af	0.1614406
161	0xbdb22c34	-0.08699837
162	0x3dbbdaad	0.091725685
163	0x3dc4f546	0.09617095
164	0xbb307663	-0.0026926033
165	0xbe208c69	-0.15678562
166	0x3d300a8e	0.042978816
167	0x3d94111a	0.07229824
168	0x3e2c0d7d	0.1680202
169	0xbe0019cb	-0.12509839
170	0xbccb1e17	-0.024794621
171	0xbe1cda25	-0.1531759
172	0x3deb07e2	0.11476113
173	0x3b88bc88	0.0041728653
174	0xbd36274c	-0.04447107
175	0xbe0d5e72	-0.1380556
176	0x3d8cedac	0.0688127
177	0x3dd33414	0.103126675
178	0xbdab67ff	-0.08369445
179	0x3e1e3500	0.15449905
180	0x3cf43965	0.029812524
181	0xbdfd34b5	-0.12363569
182	0x3e27c3d3	0.16383295
183	0x3be02825	0.006840723
184	0xbe0c8290	-0.1372168
185	0x3dd60a3d	0.104511715
186	0xbdb42d45	-0.08797697
187	0xbc6daaf2	-0.014506089
188	0x3dc00385	0.09375671
189	0xbdf5340e	-0.11972819
190	0x3e2290eb	0.15875594
191	0x3adbb0de	0.0016761085
192	0xbdd7d2bc	-0.10538241
193	0xbe2f3d50	-0.17113233
194	0xbdfc3b5f	-0.12316012
195	0x3d89915a	0.06717177
196	0x3e004efa	0.12530127
197	0xbcff1eaa	-0.031142551
198	0x3daa3530	0.08310926
199	0xbc4dc952	-0.0125602055
200	0xbb4dc333	-0.0031396865
201	0x3d49f1ff	0.04930305
202	0xbde7a836	-0.113113806
203	0x3d9c450f	0.076303594
204	0xbdf6af85	-0.120451964
205	0x3dacd3c1	0.08438826
206	0xbdd03321	-0.10166002
207	0x3da3f014	0.08004776
208	0x3df72d94	0.1206924
209	0x3df3d4a8	0.11905795
210	0x3d46ffa1	0.04858363
211	0xbdaef508	-0.0854283
212	0x3e0e16b9	0.13875856
213	0xbe2a9d3e	-0.16661546
214	0x3deca7f2	0.115554705
215	0xba0621df	-0.00051167415
216	0xbd33e3d0	-0.04391843
217	0x3d7771cc	0.06041126
218	0xbe1e919e	-0.15485236
219	0x3dfe8253	0.12427201
220	0xbe0b1cab	-0.13585155
221	0xbd88ac64	-0.06673506
222	0x3d63f942	0.055657633
223	0xbe1aee64	-0.15130001
224	0xbdb5296d	-0.08845792
225	0x3e013318	0.12617147
226	0x3e0c7dd3	0.13719873
227	0x3dbbc4c0	0.091683865
228	0xbd47cd94	-0.04878004
229	0x3be106de	0.0068672737
230	0x3e2277dd	0.15866037
231	0x3e09761d	0.13423963
232	0xbe20afff	-0.15692137
233	0x3da0cafa	0.07851215
234	0xbe1c6c54	-0.15275699
235	0xbe0624f1	-0.1310003
236	0x3dbe1af8	0.09282488
237	0xbe272e2e	-0.1632621
238	0xbc15af92	-0.0091360975
239	0x3e2de7c3	0.16982941
240	0x3e2de20b	0.1698076
241	0x3e182b35	0.14860232
242	0x3c5ff5d9	0.0136694545
243	0xbd8c7707	-0.0685864
244	0xbdbff649	-0.09373147
245	0xbceb0d3c	-0.028692834
246	0xbd903f71	-0.070433505
247	0xbd8b99e0	-0.06816459
248	0xbcabe8c9	-0.020985024
249	0xbd4d382f	-0.05010241
250	0x3d60abad	0.054851223
251	0x3d872b0c	0.066000074
252	0xbdcb73f0	-0.09934223
253	0xbd121e37	-0.035673346
254	0xbd8b7971	-0.068102725
255	0x3d889c21	0.06670404

fc.3.bias f4 [10]
0	0x3df27860	0.11839366
1	0xbd846f7e	-0.06466578
2	0x3e2603d4	0.16212398
3	0x3cbf9bd2	0.02338973
4	0xbc1b3238	-0.009472422
5	0x3b788101	0.003791869
6	0x3bb5cb38	0.005547907
7	0x3d340901	0.0439539
8	0xbddff3f3	-0.109352015
9	0x3d79953d	0.06093334
